_________________________________________________________________
Layer (type)                 Output Shape              Param #
=================================================================
conv2d_1 (Conv2D)            (None, 1, 2472, 32)       20768
_________________________________________________________________
max_pooling2d_1 (MaxPooling2 (None, 1, 824, 32)        0
_________________________________________________________________
conv2d_2 (Conv2D)            (None, 1, 822, 32)        3104
_________________________________________________________________
max_pooling2d_2 (MaxPooling2 (None, 1, 274, 32)        0
_________________________________________________________________
conv2d_3 (Conv2D)            (None, 1, 272, 32)        3104
_________________________________________________________________
conv2d_4 (Conv2D)            (None, 1, 270, 64)        6208
_________________________________________________________________
conv2d_5 (Conv2D)            (None, 1, 268, 64)        12352
_________________________________________________________________
conv2d_6 (Conv2D)            (None, 1, 266, 64)        12352
_________________________________________________________________
max_pooling2d_3 (MaxPooling2 (None, 1, 88, 64)         0
_________________________________________________________________
flatten_1 (Flatten)          (None, 5632)              0
_________________________________________________________________
dropout_1 (Dropout)          (None, 5632)              0
_________________________________________________________________
dense_1 (Dense)              (None, 256)               1442048
_________________________________________________________________
dropout_2 (Dropout)          (None, 256)               0
_________________________________________________________________
dense_2 (Dense)              (None, 256)               65792
_________________________________________________________________
dense_3 (Dense)              (None, 88)                22616
=================================================================
Total params: 1,588,344
Trainable params: 1,588,344
Non-trainable params: 0
_________________________________________________________________
None
Epoch 1/1
 1/64 [..............................] - ETA: 38:43 - loss: 4.4771 - acc: 0.0312
 2/64 [..............................] - ETA: 34:16 - loss: 4.4766 - acc: 0.0156
 3/64 [>.............................] - ETA: 32:47 - loss: 4.4754 - acc: 0.0208
…
