_________________________________________________________________
Layer (type)                 Output Shape              Param #
=================================================================
conv1d_1 (Conv1D)            (None, 51200, 32)         128
_________________________________________________________________
max_pooling1d_1 (MaxPooling1 (None, 25600, 32)         0
_________________________________________________________________
lstm_1 (LSTM)                (None, 100)               53200
_________________________________________________________________
dropout_1 (Dropout)          (None, 100)               0
_________________________________________________________________
dense_1 (Dense)              (None, 256)               25856
_________________________________________________________________
dense_2 (Dense)              (None, 88)                22616
=================================================================
Total params: 101,800
Trainable params: 101,800
Non-trainable params: 0
_________________________________________________________________

Epoch 1/1

  64/2367 [..............................] - ETA: 22:19 - loss: 4.4773 - acc: 0.0312
 128/2367 [>.............................] - ETA: 21:43 - loss: 4.4764 - acc: 0.0312
 192/2367 [=>............................] - ETA: 19:34 - loss: 4.4757 - acc: 0.0260
…
