_________________________________________________________________
Layer (type)                 Output Shape              Param #
=================================================================
conv2d_1 (Conv2D)            (None, 413, 97, 32)       12832
_________________________________________________________________
max_pooling2d_1 (MaxPooling2 (None, 413, 32, 32)       0
_________________________________________________________________
conv2d_2 (Conv2D)            (None, 413, 30, 32)       3104
_________________________________________________________________
max_pooling2d_2 (MaxPooling2 (None, 413, 10, 32)       0
_________________________________________________________________
flatten_1 (Flatten)          (None, 132160)            0
_________________________________________________________________
dropout_1 (Dropout)          (None, 132160)            0
_________________________________________________________________
dense_1 (Dense)              (None, 256)               33833216
_________________________________________________________________
dense_2 (Dense)              (None, 88)                22616
=================================================================
Total params: 33,871,768
Trainable params: 33,871,768
Non-trainable params: 0
_________________________________________________________________
None
Epoch 1/1

 1/64 [..............................] - ETA: 16:18 - loss: 4.4852 - acc: 0.0000e+00
 2/64 [..............................] - ETA: 11:11 - loss: 4.4442 - acc: 0.0469
 3/64 [>.............................] - ETA: 9:30 - loss: 4.4069 - acc: 0.0625
…
